cartpole_dqn.pth (torch, 72314 bytes, 6 tensors)

fc.0.weight f4 [128, 4]
000000 84 ac 22 bf 70 3d 74 bf bd a9 29 bf af 27 2d bf
       -0.6354449 -0.95406246 -0.66274625 -0.6763868
000010 85 43 ba be d3 cc 15 be d8 18 1c 40 0b 9d 4e 3e
       -0.36379638 -0.14628915 2.4390163 0.20177095
000020 c2 f9 74 bd 1d 78 b0 3d 26 cf 05 40 47 8b 3c 3e
       -0.0598085 0.0861666 2.0907683 0.18412505
000030 ba b6 f5 be 08 6e 0b 3e b1 5c df 3f f8 f4 0b 3e
       -0.47990972 0.13616192 1.7450162 0.13667667
000040 87 b0 49 3d 67 4b 12 3f 9f 08 07 40 05 09 f9 3e
       0.049240615 0.57146305 2.1099012 0.48639694
000050 3e 99 b8 3d 93 c6 25 bd dd 09 17 c0 d4 1e ff bc
       0.09013604 -0.04047258 -2.359977 -0.03114263
000060 b2 a6 33 bc 95 d5 59 bc 8b f6 10 40 70 f3 11 3c
       -0.010965036 -0.013295551 2.2650478 0.008908138
000070 d9 a9 bf be 93 f6 35 3f e2 ec 0f bf 9f 2e 01 3f
       -0.3743427 0.7107937 -0.5622083 0.50461763
000080 d0 28 bf 3e 23 cc 0b 3f ac f1 ad 3f 00 a7 e6 be
       0.37335825 0.5460836 1.3589377 -0.45049286
000090 3f 00 90 3d 70 3a 94 bd fe 7e ff bf 88 fb 41 bd
       0.07031297 -0.072377086 -1.996063 -0.04735902
0000a0 79 21 3f be 91 3c ee be 0e 4f c1 3f c6 b0 de bc
       -0.18665113 -0.46530584 1.510225 -0.027183902
0000b0 43 76 a3 3e a4 6d 98 be cd de a0 bf f7 8a b6 be
       0.31926164 -0.2977115 -1.2567993 -0.35652897
0000c0 23 f6 22 be 21 aa a9 bd 37 6e 12 bf b1 c8 dc 3d
       -0.15914206 -0.08284403 -0.57199425 0.10780466
0000d0 78 04 99 3e 68 e6 0d be 98 96 fa bf 59 bf 41 be
       0.29886222 -0.13857424 -1.9577208 -0.1892065
0000e0 e4 51 be 3e 37 fe b3 3e a1 17 e3 3f be 29 6f 3e
       0.37171853 0.35154888 1.7741586 0.23355767
0000f0 d3 7d 0b 3e d5 e0 d9 be ec 9b 39 c0 cb 3c 3d be
       0.13622217 -0.42554346 -2.9001417 -0.18480222
000100 0f 6b 2e bf 32 c3 86 be fe d3 08 bf 4b 3e 2b be
       -0.6813211 -0.26320797 -0.53448474 -0.16722982
000110 c9 15 72 3e 16 d0 99 be 28 b8 1e c0 a2 3f b4 be
       0.23641123 -0.3004157 -2.47999 -0.35204798
000120 72 5c ee 3d 8b 02 a5 be 12 2f 01 40 16 74 90 bd
       0.11638726 -0.32228503 2.018498 -0.07053392
000130 68 c1 d4 bd 8c 56 c9 3d 2f d4 fe 3f af 87 30 3e
       -0.10388452 0.09830961 1.9908503 0.17239259
000140 8a 97 81 3e 90 7e d1 be b5 d0 05 c0 3d 27 6d be
       0.25310928 -0.40916872 -2.0908635 -0.231595
000150 8a 21 5f 3e 8d d4 53 bf d6 bc 43 c0 66 13 39 bf
       0.21790138 -0.827462 -3.0584006 -0.72295225
000160 30 c3 bb be 11 96 73 3f dc 37 31 3f 1d 96 2e 3f
       -0.36672354 0.9515086 0.6922586 0.68197805
000170 e6 13 c7 bd c6 67 f0 bd ea 4f 77 bf f5 b0 56 bf
       -0.09720592 -0.11738543 -0.96606314 -0.83863765
000180 b1 5d b0 bd bf d4 cc bd 00 13 22 40 de 5b d3 3d
       -0.0861162 -0.100015156 2.5324097 0.10320257
000190 a8 70 7b be a9 33 0c 3b 3f 38 32 40 3f e2 44 3e
       -0.24554694 0.0021393097 2.784683 0.19226931
0001a0 ee de 51 3e 42 e3 a2 3d 94 24 50 40 d3 07 1f 3e
       0.20495197 0.07953502 3.2522326 0.15530328
0001b0 1f 9e 1c 3f 3b 1f 2f 3f a8 df ad 3f 40 be 4a 3f
       0.61178774 0.6840703 1.358388 0.7919655
0001c0 23 7e 15 3e 82 77 6d bd 99 36 ed 3f 39 dc c6 bd
       0.14598899 -0.0579753 1.8532287 -0.09709973
0001d0 89 80 59 be 07 3b a0 bd 5b f1 c1 bf 4e f3 3c bf
       -0.21240439 -0.078237586 -1.5151781 -0.73808753
0001e0 40 0b b9 3d 1c 92 3d bf c9 82 1a bf 8f c1 c4 be
       0.09035349 -0.7405107 -0.6035581 -0.38428923
0001f0 f5 67 14 3f 53 3b 80 bd 25 75 5e bf 24 0e 03 bf
       0.57971126 -0.06261315 -0.868975 -0.5119345
000200 83 83 95 3d d8 18 02 bd e1 c0 22 c0 50 57 77 be
       0.073004745 -0.031761974 -2.5430224 -0.24154401
000210 55 a0 05 3f e6 66 3c bb 13 cb 13 40 b1 37 15 3e
       0.5219777 -0.0028747856 2.3092697 0.14572026
000220 3f cc 91 be 40 21 ae bd 7a b2 50 40 d6 fa dd 3e
       -0.2847614 -0.08502436 3.2608933 0.43355435
000230 42 45 3f 3e 71 3a ef be af 5b 9e 3f 10 2f e1 3d
       0.18678764 -0.46724275 1.237173 0.109953046
000240 a1 83 3f 3f 73 62 8b 3e c5 d7 b8 3f 59 17 4b 3e
       0.74810225 0.27223548 1.4440848 0.19833125
000250 e0 c8 bd 3c d7 e0 86 3d 88 65 2b c0 df 65 07 bf
       0.023167074 0.065858535 -2.678072 -0.5288982
000260 ec 2b 65 3a 1c 8d e7 3d 55 e9 fa 3f 99 39 37 3e
       0.00087422016 0.11306211 1.9602457 0.17893066
000270 ce 1e 14 3d d8 f6 29 be de 0a 0a c0 15 d7 53 be
       0.03616219 -0.1659807 -2.1569133 -0.20687516
000280 75 20 d2 3d 25 bc 6d be 0a 91 19 c0 7f 61 c4 be
       0.10260097 -0.23216303 -2.3994775 -0.38355634
000290 67 33 46 bf 57 08 0c 3f 1b 8b db be b7 ff 3b 3e
       -0.77422184 0.54700226 -0.42879567 0.18359266
0002a0 88 7e 11 be ec 86 54 3e 68 a7 c9 be ac cf 06 3e
       -0.14208424 0.20754594 -0.39385533 0.13165158
0002b0 e9 a9 e3 3d c1 a0 f3 bd 1d e6 2d c0 3f a3 46 be
       0.11116392 -0.11895896 -2.71717 -0.19398211
0002c0 5f bb 13 bf d2 8b 6d 3f 4c 3d 40 3f f7 90 09 3f
       -0.5770778 0.92791474 0.7509353 0.53736824
0002d0 32 4d 01 3f 72 06 07 be 84 b3 b5 bf cb 63 59 be
       0.50508416 -0.13186052 -1.4195409 -0.21229474
0002e0 97 f9 30 3e aa 81 72 be f9 66 ce 3f 64 88 33 3e
       0.17282711 -0.23682275 1.6125175 0.17532498
0002f0 6f de fd 3e cf 95 71 be 8e ae 3e be 1f 4e 23 bd
       0.49583766 -0.23592304 -0.18621275 -0.039869424
000300 3e fb 23 bf 91 34 e5 3e f4 8c c6 3f 08 2b b6 3e
       -0.6405524 0.44766667 1.5511765 0.35579705
000310 cd af cd bd 3e d7 d5 3d bd 3c 1e c0 38 10 96 bd
       -0.10043297 0.10441445 -2.4724572 -0.07327312
000320 d5 ce 76 be e4 65 01 bc e8 a8 25 40 e1 99 7b 3a
       -0.24102338 -0.007897828 2.5884342 0.000959782
000330 9d 95 50 be 5f 1e 19 3e 08 a3 07 c0 80 96 a3 bd
       -0.20369573 0.14952992 -2.1193256 -0.0798769
000340 0c c8 46 3e 12 93 6d 3f 54 5a 5b bd b6 ec 5f 3f
       0.1941225 0.92802536 -0.05355294 0.8747057
000350 c3 d5 03 3f ef 06 a2 bd e4 90 ff 3e 0e e1 c6 be
       0.5149805 -0.07911479 0.4991523 -0.38843578
000360 a6 88 2c 3d cc 4b d7 3e a4 87 01 40 96 b2 e9 3e
       0.042122506 0.42050016 2.0239038 0.45644063
000370 86 66 a2 be 7a 86 3c 3e 43 d4 20 c0 01 8f 51 bf
       -0.31718844 0.18410674 -2.5129554 -0.8185883
000380 3f 46 7a bd b4 47 87 3c d6 b1 88 3e 52 d4 6c 3d
       -0.06110215 0.016513683 0.26698178 0.057819672
000390 20 65 71 bf e6 39 c1 3d 90 83 21 3f cc aa 6e 3d
       -0.9429493 0.094348714 0.63091373 0.058268353
0003a0 6c 63 01 3e cd 78 da bd 28 3e 0b c0 7c fa c6 bd
       0.12635583 -0.10667572 -2.1756687 -0.09715745
0003b0 55 a2 a8 3d ad 4f b7 bd 9f 2a 07 c0 bf 4f 9a bd
       0.082340874 -0.08950744 -2.1119764 -0.075347416
0003c0 28 88 85 be 09 d6 3f 3f 7e 02 c1 3f 8c 01 f9 3e
       -0.2608044 0.74935967 1.5078886 0.48633993
0003d0 de 79 91 bf f5 40 2f bf c6 97 8f be 59 32 d7 be
       -1.1365316 -0.6845849 -0.2804548 -0.420306
0003e0 46 9f 94 bd ed 21 b4 3e e0 76 08 40 c2 72 20 3f
       -0.072569415 0.35182133 2.1322556 0.62675107
0003f0 cb 4d 19 bd 4a bb 31 3e ca a5 f6 3f f7 72 87 3e
       -0.037427705 0.17356601 1.9269345 0.264549

fc.0.bias f4 [128]
000000 b1 a8 c7 bf d0 95 64 bf 5a 3c 50 bf b6 74 a4 3e
       -1.5598356 -0.89291096 -0.8134209 0.32120293
000010 0a 5c 17 bf 01 19 2e bf 71 49 1f bf 66 8e d7 bd
       -0.59124815 -0.680069 -0.6222144 -0.10525207
000020 6d b9 08 bf 7d 7b 13 bf 0c e7 1b bf 4a ec 33 bf
       -0.5340794 -0.57610303 -0.60899425 -0.70282423
000030 0e 92 31 3f 37 49 3a 3e 86 63 42 bf ce ef 19 3f
       0.69363487 0.18191992 -0.7593311 0.6013154
000040 73 55 9b bf 55 9d 2a bf 27 57 2d bf 43 a6 4a bf
       -1.2135452 -0.6664632 -0.6771111 -0.79159945
000050 f8 9e 8a 3e a7 99 ab be 23 fb 58 3d fc 07 85 be
       0.2707441 -0.33515665 0.052973878 -0.25982654
000060 c3 3e 17 bf 91 12 96 be 89 e4 d1 be 9f 3d e3 bc
       -0.5908014 -0.2931104 -0.4099467 -0.027739344
000070 32 09 1e bf 25 b9 ab bd 8d f3 93 be 51 d9 3c be
       -0.6173278 -0.08384923 -0.28896752 -0.18442275
000080 94 41 51 3e a6 c9 f2 bd 27 a3 16 be 1b 7f a5 3e
       0.20435172 -0.11854868 -0.14710675 0.32323536
000090 3b a5 b2 bf 7a 35 2b bf ac 12 27 bf 35 7f ca 3e
       -1.3956674 -0.66878474 -0.65262866 0.39550176
0000a0 a3 e9 1b 3f 72 09 80 be ce f9 d5 be 46 15 60 bf
       0.60903376 -0.25007206 -0.41792148 -0.8753246
0000b0 b6 b9 f2 be 00 44 6b bf 32 3f 71 3e 4d eb 0c bf
       -0.4740731 -0.91900635 0.23559263 -0.5504654
0000c0 da 22 ed 3e 65 fe 1a 3f 92 c9 06 3d 73 a9 28 3f
       0.46315652 0.60544425 0.032907076 0.6588356
0000d0 53 25 80 bf b0 56 82 bf 5a 1d e2 bb c6 c6 24 bf
       -1.001139 -1.0182705 -0.0069004716 -0.64365804
0000e0 02 6a f5 be 8b ce 32 3f 5f 8b 39 bf e4 99 28 bf
       -0.4793244 0.6984641 -0.7247829 -0.6585982
0000f0 21 a5 36 3f 29 75 32 bf df 0b 7e bf 3a f0 06 3f
       0.71345717 -0.6971002 -0.99236864 0.52710307
000100 00 0b ca 3e 72 56 1d 3f 61 97 06 be df 65 79 bd
       0.39461517 0.6146003 -0.13143684 -0.060888167
000110 2f 6f 7d 3c f9 b9 d0 be 81 eb 9b be ca 6d 3c bf
       0.015468403 -0.40766886 -0.30453113 -0.73605025
000120 9f 7c 05 3e 65 07 96 be a8 8e 91 be f7 b8 4e 3e
       0.1303582 -0.29302517 -0.2842915 0.20187746
000130 84 d6 f6 3e 03 44 d8 3d ef 1f 73 bf 3d ce 23 bf
       0.48210537 0.10559847 -0.949706 -0.6398657
000140 71 69 01 bf ff 91 19 bf 8a cd 1d 3f 71 b8 25 3f
       -0.50551516 -0.599884 0.6164175 0.6473456
000150 ed 20 a1 be 4e 25 01 bf 1a 2b 61 bf c9 71 8b be
       -0.31470433 -0.5044755 -0.8795639 -0.2723525
000160 0a 98 2f 3f b6 ed cc be de 28 00 bf 36 f0 16 bf
       0.6859137 -0.4002511 -0.5006236 -0.5896028
000170 08 f5 42 bf 96 4a 43 bf 10 f3 88 bf 3d 43 5e be
       -0.7615514 -0.76285684 -1.0699177 -0.21705337
000180 a6 dc 3d be 3e 38 16 bf 1a ba 86 bf d2 28 61 bf
       -0.18541202 -0.5867957 -1.0525544 -0.8795291
000190 26 53 5d bf 54 cf 10 3f 13 9f c6 be b2 9f fc be
       -0.86455 0.5656636 -0.3879324 -0.49340588
0001a0 14 97 33 bf 16 9e ca bb 38 4f c3 be 96 bc 26 bf
       -0.701524 -0.006183396 -0.38146377 -0.6513151
0001b0 25 53 ed be ef 54 f5 3e 43 40 af be 48 11 14 3f
       -0.46352497 0.47916362 -0.34228715 0.5783887
0001c0 21 d2 9b bf c4 03 cf bf f3 97 fd be 58 b9 39 bf
       -1.2173501 -1.6173024 -0.4952999 -0.7254844
0001d0 14 8e af be bd 58 dd 3d de 96 b6 bd 67 d0 4c bf
       -0.34288085 0.10807941 -0.089154944 -0.80005497
0001e0 7c a1 37 bf 1c 5a eb 3d 30 34 f5 3e 52 18 ee bd
       -0.7173078 0.114917964 0.47891378 -0.116257325
0001f0 38 9e b4 bc 12 6c 0f be fb af c9 be 76 d4 71 bf
       -0.0220481 -0.1400607 -0.39392075 -0.94464815

fc.2.weight f4 [128, 128]
000000 6d 7d a1 bf 1f 2d ba 3e 6a ae a4 be f9 93 d7 3d
       -1.2616402 0.3636255 -0.32164317 0.105262704
000010 3d a1 bf bf fd 54 31 c0 fc be 94 3d 6f 69 05 3e
       -1.4971081 -2.7708123 0.0726299 0.13028501
000020 12 61 40 bf 71 31 54 c0 06 9b 13 3f 7e 37 30 3f
       -0.7514812 -3.3155177 0.5765842 0.68834674
000030 93 d4 6c 3e cd 99 13 3f 39 ca 03 bf 15 16 d0 3e
       0.23127966 0.57656556 -0.5148044 0.40641847
000040 81 10 b8 bf d6 65 39 c0 06 17 21 bf 92 25 1e 3c
       -1.4380037 -2.8968406 -0.62925756 0.009652512
000050 22 d4 e1 3e 59 ae c9 be 80 8d 10 bf 64 67 23 3f
       0.44107157 -0.3939083 -0.5646591 0.63829637
000060 3b be 1b bf 53 6a 17 bf 9d e4 a1 bf 4c 74 c5 be
       -0.60837144 -0.5914661 -1.2647892 -0.3856529
000070 d2 cd 80 bf 07 4c e3 3d 5d 1f dd bc 09 23 29 3a
       -1.0062811 0.110984854 -0.026992494 0.0006452059
000080 48 4e 37 3e bc f5 b5 be 99 9c 9e 3e 01 cf 14 3e
       0.17900956 -0.35539043 0.3097885 0.1453209
000090 4f 13 07 c0 ca b6 83 c0 65 7c 25 3f 75 9c 81 3e
       -2.1105535 -4.116063 0.64642936 0.2531468
0000a0 36 36 c5 3e 43 3e 38 be 86 24 2d 3d 91 18 65 c0
       0.38517922 -0.17992501 0.04227116 -3.5796244
0000b0 5c 98 fc 3e 72 bd e9 bf 16 0f e7 3d 65 2f 6f be
       0.4933499 -1.8260939 0.11282174 -0.23357923
0000c0 07 a9 87 3e f2 be f2 3e ab 44 ae bd 1e ae b1 3e
       0.26496145 0.47411305 -0.08509191 0.34703153
0000d0 fa 84 32 c0 9d a4 3f bf a9 30 04 be 77 b9 82 bf
       -2.7893662 -0.74860555 -0.12909187 -1.0212849
0000e0 50 71 e7 bd 1f ea a1 3d 0e 3e 60 c0 90 25 47 c0
       -0.113009095 0.07905983 -3.5037875 -3.1116676
0000f0 a2 b1 9a 3e a9 99 bb be e3 19 bb bf f0 04 52 3b
       0.30213648 -0.3664067 -1.4617275 0.00320464
000100 36 5a 9b 3e ee a4 26 3e 8e 47 63 be 3c 78 59 be
       0.30342263 0.16273853 -0.22195265 -0.21237272
000110 c5 2c 5d 3c 4a 42 a7 3e b5 85 3b 3f f5 c0 61 c0
       0.013499443 0.32667762 0.73250896 -3.5274022
000120 d8 4a 65 be 61 51 e3 be 88 86 2c be ce 9b 11 3f
       -0.22391832 -0.44398025 -0.16848195 0.56878364
000130 09 b5 2b 3e f3 26 04 be 3b 93 1d be 9e 59 ac bf
       0.16768278 -0.12905483 -0.15388195 -1.3464849
000140 52 9c 87 3e 3e e6 2a bf be 99 9a 3e 2d 53 32 3e
       0.2648645 -0.6675757 0.3019542 0.17414542
000150 5b 38 6d be 77 c2 9f be 6e 89 9a bf e8 64 40 bf
       -0.23166029 -0.31203052 -1.207319 -0.7515397
000160 b6 a7 70 3e 32 04 5b 3d 96 9f b8 3e d5 a0 40 3c
       0.23501477 0.053470798 0.36059254 0.011757095
000170 f8 18 6a c0 a5 d8 30 bf 34 dc 07 3f 24 d3 30 bf
       -3.657774 -0.69080573 0.5307038 -0.69072175
000180 ce 18 00 bf 02 d5 4e c0 eb b5 e1 bf 64 b9 dc be
       -0.5003785 -3.231751 -1.7633642 -0.43110192
000190 40 5f cf 3d d7 dd 97 3e eb 0b 38 be e3 d5 d2 be
       0.10125589 0.29661438 -0.17973296 -0.41178808
0001a0 3e 3d ed bf d7 94 5b 3e f9 e9 12 3f 85 90 57 be
       -1.8534315 0.21443497 0.57388264 -0.21051224
0001b0 5c 89 6d be 70 1b c1 3e 18 6e 11 3e 04 4b c4 3e
       -0.2319693 0.37716246 0.14202154 0.38338482
0001c0 cc da 55 be 9a cf d9 bf 43 5f e8 be e3 bd d5 bf
       -0.20884246 -1.701648 -0.4538518 -1.6698574
0001d0 e4 02 3f be 59 c0 ed 3d b6 a8 dd 3d 94 98 33 3f
       -0.18653446 0.11608953 0.10823195 0.7015469
0001e0 e1 4e 1a bc c5 c9 a9 3d f3 78 49 3e 15 79 14 bf
       -0.00941822 0.082904376 0.19675045 -0.57997257
0001f0 bc 9f 91 3e 22 bd a6 be f0 df 32 bf 24 6a 94 bf
       0.2844218 -0.32566172 -0.6987295 -1.1594892
000200 42 69 85 bd 86 93 db bc b4 17 f0 bd 69 53 d0 be
       -0.06514217 -0.026803743 -0.11723271 -0.40688637
000210 aa 82 8e bf 89 ec 5c 3f a5 84 f3 bd fa 05 1c bc
       -1.1133626 0.86298424 -0.11890534 -0.009522909
000220 8f ec 21 bd 57 5c 85 3f c3 62 2a be fa 52 bf 3d
       -0.03953224 1.0418805 -0.16639237 0.093419984
000230 9e b7 2b bf 90 73 d8 3d 99 25 28 be f8 26 75 be
       -0.6707705 0.10568917 -0.16420592 -0.23940647
000240 e5 e6 36 3f 2e 39 e7 3f 98 b7 5c 3d 98 5b 1a be
       0.7144607 1.8064325 0.053886026 -0.15074003
000250 04 51 02 bf c3 1d f8 3d 43 d6 c6 3d 17 ec 33 be
       -0.5090487 0.121150516 0.09708836 -0.1757053
000260 a2 42 b1 bd 77 0d a1 bf 78 70 d5 bd 08 8e 04 be
       -0.08655287 -1.2582234 -0.10421842 -0.12944806
000270 57 5b 1a 3c 68 8c c8 bb 41 6e 28 bd f8 16 34 3e
       0.009421191 -0.0061202534 -0.04112077 0.17586887
000280 0a aa 27 be b8 0a 6c bf 8e 9b bd be 4f af 96 bf
       -0.16373459 -0.92203856 -0.3703274 -1.177225
000290 62 b8 36 3e 25 50 cf 3f 73 08 02 bf cb a1 f2 bd
       0.17843774 1.6196333 -0.5079414 -0.11847266
0002a0 b9 9a fd bd e0 75 c9 3e 8c 67 93 bc 8c 48 94 3f
       -0.12383027 0.39347744 -0.017993711 1.158464
0002b0 d1 9f 40 be c9 fc b1 3f 60 85 13 be 87 40 b1 bd
       -0.18810965 1.3905269 -0.14406347 -0.08654886
0002c0 e4 84 75 bf e9 d9 35 be e3 c8 96 bf 2f 0a 95 be
       -0.959059 -0.17758907 -1.1780056 -0.29109332
0002d0 2e a9 a1 3e 56 a8 80 bd 77 f4 33 bf 25 55 e3 3e
       0.31574386 -0.062821075 -0.702949 0.44400898
0002e0 7f 77 38 bd 43 03 f8 bd 4d cb 85 3f be f6 89 3f
       -0.045035835 -0.12109997 1.0452667 1.0778425
0002f0 96 1a d2 bf 31 ea b3 be e9 bc d0 3c f5 b6 31 c0
       -1.6414363 -0.3513961 0.025480704 -2.7767918
000300 31 52 a4 bf 21 20 3e c0 8c 59 49 3e 20 4b 05 be
       -1.2837583 -2.970711 0.19663066 -0.13016939
000310 11 9e 4e bd d0 dc 8a be d4 e9 b1 bd 22 c0 97 3f
       -0.050443713 -0.27121592 -0.08687177 1.1855509
000320 40 04 d6 3c fb 7c 96 3d 24 62 8f bd 85 af c5 bd
       0.026125073 0.07348057 -0.07001141 -0.09652618
000330 62 ff 9f bf a1 92 26 3f 94 0d 96 3d 03 f2 8a 3f
       -1.2499812 0.6506749 0.073268086 1.0855106
000340 a6 2a b5 3e fa 07 23 3e ab 58 f4 bf 69 75 76 bf
       0.353841 0.15921012 -1.9089559 -0.96272904
000350 3d 80 1c 3f 24 90 80 bf 6f 77 7b 3f a7 99 8a 3f
       0.61133176 -1.0043988 0.98229116 1.0828141
000360 32 74 03 bf 5b cb a5 bc d6 6c 1a bd 8e dd 86 3d
       -0.51349175 -0.020238569 -0.03770145 0.06585227
000370 7b bf ac 3f ba 77 c0 3d 78 15 06 be ea af 56 bf
       1.3495935 0.09397836 -0.13094127 -0.83862174
000380 fb 63 ce 3d ff 77 95 3f 79 44 0f 3f 5b e4 5b bd
       0.100776635 1.1677245 0.55963856 -0.053684574
000390 4d ce db bd 1b 15 86 be 2a 2d 56 be 2a 0f 40 be
       -0.10732708 -0.26187977 -0.20915666 -0.18755785
0003a0 28 85 8f 3c 4f a0 86 bb 7c a4 b6 bc 18 1f a4 3d
       0.017519549 -0.0041084657 -0.02229523 0.08013743
0003b0 52 af 29 bd ce 34 a5 bd dc 20 62 be d8 49 3b be
       -0.041426964 -0.08066712 -0.22082847 -0.18289888
0003c0 6a 15 c0 bd 32 c0 f6 3e 87 d5 06 3f ed 34 1a 3c
       -0.093790844 0.48193508 0.52669567 0.009412033
0003d0 29 92 e4 be 68 92 3d be 99 d6 de bc c3 bf 62 bc
       -0.4464276 -0.18512881 -0.027201938 -0.013839665
0003e0 d9 ef 99 bd 6e 26 c9 bf f7 28 e1 bf 1d a5 1b 3d
       -0.075164504 -1.5714853 -1.7590626 0.03799926
0003f0 fe cf 3e be ef b6 48 3d a6 94 90 be 38 78 53 3f
       -0.1863403 0.049002584 -0.2823841 0.82605314

fc.2.bias f4 [128]
000000 8c 97 c7 3e 08 be 2b bf 84 a8 a4 be 32 93 12 be
       0.3898281 -0.6708684 -0.32159817 -0.14313963
000010 84 08 13 be bd 6e 9a bc 9f 68 fa ba a8 c6 2f 3d
       -0.14358717 -0.018851632 -0.0019104666 0.042914063
000020 a5 8b e0 bd 72 37 b6 be 5e 41 8c 3e 66 aa 05 3f
       -0.10964135 -0.35589176 0.2739362 0.5221313
000030 3c 94 e1 bd 02 b8 a4 bd 18 88 34 3f 49 d9 bd be
       -0.110146016 -0.08042909 0.7052016 -0.37079838
000040 7d 59 20 bf b9 10 dd 3e cc ef 3c be 97 85 78 be
       -0.6263655 0.4317682 -0.1845085 -0.2426971
000050 ab 21 0d 3f 70 6b ce 3e ad 4a 0e 3f ae 6d c1 bb
       0.551295 0.40316343 0.55582696 -0.0059029674
000060 df 1f 9a 3e f5 54 99 bd e2 96 00 3f 45 11 cc 3e
       0.3010244 -0.074869074 0.5023023 0.39856926
000070 b2 d7 5f bd 25 c4 e0 3e 44 fd 05 be 2c a3 42 3f
       -0.054649062 0.43899646 -0.13084894 0.7603023
000080 c9 d5 97 bc 7c e6 c1 be 8c 30 83 bc 25 3a 3a 3e
       -0.018534558 -0.37871158 -0.01601436 0.18186243
000090 d0 86 9b 3e 81 7e aa be 6b 3c 43 be b9 dd e8 3d
       0.3037629 -0.3329964 -0.19066016 0.11370415
0000a0 1d af e5 bd 7f 3d 51 3e 61 9b 2f 3f da ef ed be
       -0.11215041 0.20433615 0.68596464 -0.46472055
0000b0 31 41 8c bd 66 f1 4a bd d4 1d 9b be 30 80 d2 bc
       -0.06848372 -0.04954662 -0.30296195 -0.02569589
0000c0 38 df 00 be 2b 91 db 3e 8f 17 92 bd d0 06 96 bd
       -0.12585151 0.42884192 -0.071334 -0.07325518
0000d0 0e ce 34 be eb 63 90 3d 20 6b 49 3c 96 66 e0 3e
       -0.17656729 0.07050308 0.012293607 0.43828267
0000e0 36 67 21 bc 4d c2 86 be 4f 59 3a be 48 1f 43 bd
       -0.009851268 -0.26320115 -0.18198131 -0.047637254
0000f0 bf 3e 87 bd d8 2d 34 be 4c 7b b2 3d 63 62 be 3e
       -0.06603765 -0.17595613 0.08714923 0.37184438
000100 52 4a f0 3b 8d 22 00 3f 14 ba 2c bd 7f ec 61 3d
       0.0073330784 0.5005272 -0.042169645 0.05515718
000110 6e f7 ae be 86 82 08 3f 05 0d de be 08 1b 8b be
       -0.3417315 0.5332416 -0.43369308 -0.2716906
000120 b8 e1 2f be c2 5c 30 3f 35 2c 6e 3d 7c 88 4f bb
       -0.17175949 0.6889154 0.058147628 -0.0031667044
000130 b9 07 a1 bd 77 ee 2b be e6 05 be bd d3 05 5b be
       -0.07862801 -0.16790186 -0.09278469 -0.2138894
000140 3a 62 5a be d6 9d da 3e 82 d8 b1 3e 99 1f c7 bd
       -0.21326533 0.42698544 0.34735495 -0.09722824
000150 07 a8 aa be dd 2e b1 bd ef eb 91 bd 8d c3 58 be
       -0.3333132 -0.086515166 -0.07125079 -0.21168347
000160 cc e8 1d 3f d3 72 75 3c 81 e4 2c 3f f2 94 70 be
       0.61683345 0.0149809895 0.6753617 -0.23494318
000170 16 8c e9 be 55 8c 2a be df 18 24 3f be ee 08 bd
       -0.4561469 -0.16655095 0.6410045 -0.033430807
000180 7f 17 ad bd 47 2a 15 bd c8 53 83 bd f2 72 a2 3c
       -0.08451747 -0.036417272 -0.064124644 0.0198302
000190 70 8b 6b be bd df 60 bd 0b 83 96 bd 38 33 f8 3e
       -0.2300241 -0.054900873 -0.07349213 0.48476577
0001a0 80 55 3c 3d 91 8e 91 be 49 e7 cf be 7c 15 2e bd
       0.045979977 -0.28429082 -0.40606144 -0.042500958
0001b0 bb e2 26 3e 6e 5f 65 be 75 47 53 3d ba 53 6d be
       0.16297428 -0.22399685 0.05158182 -0.2317647
0001c0 16 2d ce bd 8f b3 11 be 28 52 15 3e 1f 21 a9 3c
       -0.10067193 -0.14228652 0.14582121 0.020645676
0001d0 bb b7 19 bd eb 57 b3 bc a8 9f 97 be 6d 49 a7 bd
       -0.037528735 -0.021892508 -0.29613996 -0.08168302
0001e0 ef 43 bb be d4 f2 ab be 47 0d 80 3d 12 d4 8b bd
       -0.36575267 -0.335837 0.062525325 -0.068275586
0001f0 3c aa e4 bd e2 65 08 3f ef e1 10 be a6 fe 04 bc
       -0.11165282 0.5328046 -0.14148687 -0.008117354

fc.4.weight f4 [2, 128]
000000 30 f2 d1 3e 5a 94 21 40 3f e6 ea be a3 86 f8 bf
       0.41005087 2.5246797 -0.4587879 -1.9416088
000010 a2 bc be bf ea b1 9e bc d7 59 ea bc 15 ed 40 bf
       -1.4901316 -0.019371945 -0.028607292 -0.7536176
000020 db 2a a1 bc 59 ad f9 bf de 36 4f bf 06 fa 2a 3f
       -0.019673755 -1.9506027 -0.80943096 0.66787755
000030 31 ca 7a 3f 73 e2 7b bc 26 4a f9 3f 8d 53 bc 3f
       0.9796477 -0.015373814 1.9475753 1.4712998
000040 af 73 6e bf 55 ae 63 3e ca c5 b1 be 0f 5e 3d bf
       -0.9314527 0.22234471 -0.34721214 -0.7397165
000050 a2 68 88 be ae 5a 23 3f c7 f1 50 bf c9 cb c9 bc
       -0.26642329 0.6381024 -0.8161892 -0.024633305
000060 65 e2 41 c0 ae 69 0b c0 90 a6 ce be 1f 27 f2 bf
       -3.029443 -2.1783252 -0.40361452 -1.8918189
000070 7c 6b 84 3c 21 d5 7f 3e ba 70 bf be 26 70 bf 3f
       0.016164534 0.24983646 -0.3739069 1.49561
000080 57 8e 26 3d ed a3 63 bf 2c fe c5 3d 6b 5d 2f 3d
       0.04066309 -0.88922006 0.0966762 0.0428137
000090 84 00 0b bf 3d df 2f bf ee 5a 96 be 3b dd 4d 3f
       -0.5429766 -0.6870001 -0.2936625 0.80415696
0000a0 60 8e 0a c0 b0 0b a5 bd ba d1 03 40 61 24 c3 bd
       -2.1649399 -0.0805887 2.0596757 -0.09528423
0000b0 af 1f 81 3d b1 cc 18 3d 02 68 a8 be 2b 23 78 3d
       0.06304871 0.037304584 -0.32891852 0.060580414
0000c0 5a 7e fe bf 12 1f 0b bf f0 65 28 3d 7f 67 4e bd
       -1.988231 -0.54344285 0.04111284 -0.05039167
0000d0 a8 29 23 3f b6 fb 15 3d de e8 cf bc 20 60 69 3f
       0.6373544 0.036617003 -0.025379594 0.911623
0000e0 5c 86 cc 3c ea 5f 9a be fd cf ae bf 24 1c 85 bc
       0.024966411 -0.30151302 -1.3657223 -0.01624877
0000f0 24 b1 50 3b 77 dd 9b be 1a 25 55 bf b3 47 02 3f
       0.0031843865 -0.30442402 -0.8325974 0.50890654
000100 ec 6d 83 bd 9f b3 cf be 6c f8 58 3d 51 7d 97 3f
       -0.0641745 -0.40566728 0.05297129 1.1835119
000110 6b 04 a1 bf d6 27 c0 3f 92 05 19 bf 04 5d c5 be
       -1.2579473 1.5012157 -0.59774125 -0.38547528
000120 4f 4f af be 56 b8 04 40 be 63 01 bd ab 9d a7 bc
       -0.34240195 2.073751 -0.031589262 -0.020460924
000130 85 3c 16 3d 51 4f 64 bf e3 5f 27 3c e7 53 08 c0
       0.03667881 -0.8918353 0.010215732 -2.130121
000140 82 39 be be 81 cb ca 3e 90 50 29 3f 76 ff 4e 3c
       -0.3715325 0.39608386 0.66138554 0.012634149
000150 97 ec 64 be ee 54 bc bf e8 fc c3 bc 41 cf 0e c0
       -0.22355877 -1.4713418 -0.023924306 -2.2313998
000160 32 ad c7 3f 9d 5e 0d 3d b7 99 e9 3f 2e a5 db be
       1.559973 0.03451406 1.8250035 -0.4289946
000170 06 7f ad 3f 2d e7 01 c0 a8 c5 ed 3f 18 e9 99 bc
       1.355439 -2.0297348 1.8575945 -0.018787906
000180 c0 00 34 3d 61 73 f2 bf 19 f7 44 bc 3a 8a 9a bc
       0.043946028 -1.8941461 -0.012021803 -0.01886474
000190 7c d2 fd bf a1 f6 d7 bc f6 6e 84 3c d5 0a 84 bf
       -1.982986 -0.026362719 0.016166192 -1.0315806
0001a0 41 30 1d 3c 1b df 48 3f b4 e5 85 bf 64 20 a3 bd
       0.009594024 0.7846543 -1.0460725 -0.079651624
0001b0 ac db 72 c0 b6 a3 b9 be 61 e9 17 bb 3d 3e 99 bf
       -3.7946577 -0.36257714 -0.0023179876 -1.1972119
0001c0 48 c4 f9 bf fc b4 e9 bf 89 f4 67 bf 01 a1 c6 bd
       -1.9513025 -1.8258357 -0.90607506 -0.09698678
0001d0 b4 ea 98 bc ca de e6 bb 79 d1 8f be 67 e4 92 bc
       -0.018666603 -0.0070456015 -0.28089502 -0.017931176
0001e0 6f de 8f bf b8 51 b0 bf b5 65 60 3e fe a1 4c 3c
       -1.1239756 -1.3774939 0.21913798 0.012489794
0001f0 e1 47 90 3d 03 ee 16 3e 7e 58 a4 bf 2a eb ae bd
       0.0704496 0.14739232 -1.2839506 -0.08540948
000200 a9 82 7f 3f dd 23 fa 3f 80 e3 c6 be 2d 5c 61 3f
       0.99808747 1.9542195 -0.38845444 0.88031274
000210 64 45 c2 3f 1d 8c 8f 3d c0 3c e5 3a 3c 25 41 3f
       1.5177426 0.07009146 0.0017489418 0.7544744
000220 e2 8e c5 3b a3 23 5d 3f 7c 9e 1c c0 85 26 51 3f
       0.006028996 0.863825 -2.447173 0.816994
000230 fb 48 41 c0 17 8d 31 bd 01 4e c6 3f e2 49 19 c0
       -3.0200794 -0.043347444 1.5492555 -2.3951344
000240 57 e2 84 3e a4 d7 22 bf 70 12 5e be b5 da 37 bf
       0.25953934 -0.6361029 -0.21686721 -0.71818095
000250 a8 95 13 c0 e3 6e 49 3f dd df 6c 3e 7d 75 d4 bc
       -2.3060093 0.78684825 0.23132272 -0.025934929
000260 c5 b3 a8 bf 25 a6 6f bf 7a 94 d9 3e 48 b7 54 40
       -1.3179861 -0.9361289 0.4249609 3.3236866
000270 f1 07 3d 3d ff 3d 2f bf 52 8a 84 be 09 7e ed 3f
       0.04615015 -0.68453974 -0.2588678 1.8554088
000280 07 68 13 3d 8b 29 6d 3f bd 8a 8c 3c 91 88 30 bf
       0.03598788 0.92641515 0.017156 -0.68958384
000290 a9 96 d4 bf a1 3a 43 bf 18 ee 59 be 4a 8d c9 3f
       -1.6608478 -0.76261336 -0.21282232 1.5746243
0002a0 50 83 bd 3f 18 68 2a bf bc 79 77 3f 4a 47 62 bf
       1.4805698 -0.66565084 0.96670127 -0.8839003
0002b0 03 9b b3 3d da 16 55 bc 65 4f 56 be cc c4 07 3d
       0.087698005 -0.0130059365 -0.20928724 0.033146665
0002c0 4e 46 11 bf 66 c5 a6 bf 53 01 9a 3c 0f 04 bf 3b
       -0.567479 -1.3028991 0.01879946 0.0058293412
0002d0 37 51 2f c0 a5 6c ae bd 08 38 89 3d d1 27 74 3f
       -2.739332 -0.08516816 0.0670014 0.95373255
0002e0 fe 41 00 3d 35 ee 75 be af 99 9e 3f b5 a3 fa bc
       0.031312935 -0.2401665 1.239065 -0.03059564
0002f0 aa 05 f4 3c 3a 2f 70 be c0 1d 0b 3e 39 bc 3d bf
       0.029787857 -0.23455516 0.13585567 -0.7411533
000300 45 1f 9d 3c 2c 5a d3 3e 1e d3 2d bd 1f 09 43 bf
       0.01917995 0.41279733 -0.042437665 -0.7618579
000310 73 ff c5 bf 32 f5 e6 3f 7f e5 03 bf 0d cd 90 be
       -1.5468582 1.8043578 -0.5152206 -0.2828144
000320 e9 3b 7f be 63 7b 9e 3f 4e 03 98 bd 8b 23 db 3a
       -0.24925198 1.2381405 -0.07422505 0.0016718967
000330 04 0c 59 3d b0 9f 01 c0 1b 95 3b 3d 2c 3f c6 3f
       0.052989975 -2.0253716 0.045796495 1.5488029
000340 e6 52 75 be 87 40 63 3f 33 7e c0 be c0 11 36 3d
       -0.23957404 0.88770336 -0.37596282 0.04445052
000350 f0 1f 11 c0 99 bc d8 bf b2 f0 92 3d 5f 7c 8e 3f
       -2.2675743 -1.6932555 0.07174815 1.1131705
000360 b2 05 d9 3f c3 fe 7f 3d 3f 09 d0 3f 45 64 05 c0
       1.6954863 0.06249882 1.6252822 -2.084245
000370 e6 d1 16 c0 d0 c4 2d bf a0 e8 c1 3f 5e b8 79 3d
       -2.3565612 -0.6787844 1.5149117 0.060966842
000380 59 3b 3a 3c 8f 58 4c 3f b7 d1 59 3d 6e 9b 24 bc
       0.011366689 0.7982263 0.053178515 -0.010046823
000390 9d 00 1b c0 2b 12 f5 3c 6a b1 82 3d 20 cf 75 3e
       -2.4219124 0.02991589 0.06381495 0.24004793
0003a0 ff 81 87 bd 2a ae 33 c0 98 84 fe 3c 28 13 3d ba
       -0.06616592 -2.8075051 0.031069085 -0.00072126323
0003b0 05 ce 03 3f 58 63 87 be 4c 7b 94 3d 67 f1 35 3f
       0.51486236 -0.2644298 0.072500795 0.71071476
0003c0 e8 59 d5 3f 2b 05 e3 bf 48 a9 12 bf a5 33 14 bf
       1.6668062 -1.7735952 -0.5728955 -0.57891303
0003d0 48 c3 09 bd 17 5a 2d 3d da 67 79 be 00 fa c0 bc
       -0.0336335 0.042322244 -0.24356022 -0.02355671
0003e0 d1 78 82 3f 09 ea 2d 3f 04 e2 e0 3e d3 09 1c bb
       1.019312 0.67935234 0.43922436 -0.0023809567
0003f0 e2 4e e5 3c 47 7b 2f bf 70 95 94 bf 82 70 f6 3b
       0.027991716 -0.6854748 -1.1608105 0.007520736

fc.4.bias f4 [2]
000000 0e 60 74 3d b6 d2 65 ba
       0.059661917 -0.0008767055
